hm2.ckpt (torch, 657727 bytes, 431 tensors)

exp_avg f4 [16, 1, 3]
-7.587457e-05 -7.2937335e-05 -6.9228685e-05 0.00017717679 0.00018656936 0.0001958698 1.687398e-05 2.0690706e-05
2.512855e-05 -0.00021007351 -0.00023536375 -0.00026855202 -5.365288e-05 -4.8225043e-05 -4.7175345e-05 -5.71191e-05
-5.4029704e-05 -5.3285254e-05 -0.00011615218 -0.000101648635 -9.5533025e-05 6.658478e-05 5.8653648e-05 4.9214734e-05
0.00015497388 0.00015616794 0.00015419514 0.000121057565 0.00012118453 0.000120944744 1.6193142e-05 2.3348473e-05
2.9571585e-05 0.0002359312 0.000251854 0.00026262665 0.00021380695 0.00020982574 0.00020479548 0.0004466147
0.00044897513 0.00045117753 0.00025636415 0.0002626745 0.0002669498 0.00034066982 0.0003412471 0.0003346019
00000000: d91e 9fb8 eff5 98b8 de2e 91b8 88c8 3939
00000010: d5a1 4339 6662 4d39 998c 8d37 f490 ad37
00000020: 26cb d237 2e47 5cb9 facb 76b9 71cc 8cb9
00000030: 5709 61b8 3f45 4ab8 24de 45b8 2b93 6fb8
00000040: f49d 62b8 9b7e 5fb8 ba96 f3b8 322c d5b8
00000050: e758 c8b8 6ea3 8b38 e002 7638 eb6b 4e38
00000060: 7c80 2239 03c1 2339 71af 2139 49e0 fd38
00000070: 7324 fe38 b7a3 fd38 82d6 8737 77dc c337
00000080: 7f10 f837 4d64 7739 460b 8439 27b1 8939
00000090: 5e31 6039 ab04 5c39 5ebe 5639 9c27 ea39
000000a0: 6c64 eb39 068c ec39 9d68 8639 93b7 8939
000000b0: 65f5 8b39 ee9b b239 69e9 b239 826d af39

exp_avg_sq f4 [16, 1, 3]
5.0638682e-06 5.260258e-06 5.4355555e-06 2.1618891e-06 2.1924377e-06 2.2150286e-06 2.2588209e-08 2.2870275e-08
2.3954383e-08 2.2207123e-05 2.3700662e-05 2.5197352e-05 3.445244e-06 3.549949e-06 3.6409729e-06 1.0700167e-06
1.0824764e-06 1.0962381e-06 4.2303113e-06 4.2329284e-06 4.2281813e-06 1.9917026e-05 1.9598858e-05 1.9232091e-05
2.600723e-06 2.5576928e-06 2.5072384e-06 8.0870805e-06 8.362636e-06 8.600789e-06 1.6985387e-06 1.7210222e-06
1.7416706e-06 2.5527315e-06 2.5532302e-06 2.539334e-06 2.9919088e-06 2.9877338e-06 2.9734417e-06 1.0713916e-06
1.0888506e-06 1.103137e-06 1.4513922e-06 1.4618317e-06 1.4653165e-06 1.0395882e-05 1.052481e-05 1.0608435e-05
00000000: 4cea a936 4681 b036 1163 b636 f914 1136
00000010: cb21 1336 e7a5 1436 ff07 c232 4474 c432
00000020: 3fc4 cd32 6f49 ba37 c9d0 c637 e75e d337
00000030: d734 6736 a93b 6e36 7057 7436 7e9d 8f35
00000040: 9b49 9135 7422 9335 19f2 8d36 9408 8e36
00000050: cddf 8d36 7d13 a737 3a68 a437 9a54 a137
00000060: 1588 2e36 d4a4 2b36 0742 2836 bfad 0737
00000070: 404d 0c37 1c4c 1037 58f9 e335 dffd e635
00000080: 59c3 e935 984f 2b36 2958 2b36 6d69 2a36
00000090: 9ac8 4836 e080 4836 578b 4736 bccc 8f35
000000a0: 9f24 9235 800f 9435 75cd c235 2834 c435
000000b0: e4ab c435 f969 2e37 b793 3037 e2fa 3137

exp_avg f4 [16]
-0.00015473293 -4.651519e-05 -1.8543014e-05 0.00016054323 4.7247024e-05 0.0001576661 0.00010161721 -3.504635e-05
0.00039030035 -2.6088941e-05 -5.3375203e-05 0.00013748315 0.00036401488 0.00018872882 0.00014965105 0.00040746867
00000000: ce3f 22b9 4e19 43b8 d28c 9bb7 7f57 2839
00000010: 1b2b 4638 2c53 2539 531b d538 bbfe 12b8
00000020: 3aa1 cc39 93d9 dab7 30df 5fb8 5a29 1039
00000030: 40d9 be39 82e5 4539 a6eb 1c39 85a1 d539

exp_avg_sq f4 [16]
2.9886294e-07 2.726209e-07 2.2632783e-08 2.2356311e-05 3.0001073e-07 1.2388551e-06 6.565542e-07 5.196127e-06
8.91876e-07 1.2073943e-07 8.459897e-07 5.174714e-07 8.8449696e-07 3.2237583e-07 2.5094067e-07 1.3452562e-06
00000000: 6973 a034 bb5c 9234 046a c232 d089 bb37
00000010: 2911 a134 bd46 a635 103e 3035 645a ae36
00000020: 4169 6f35 9aa4 0134 f817 6335 5de8 0a35
00000030: 2b6e 6d35 ff12 ad34 06b9 8634 a78e b435

exp_avg f4 [16, 16, 3]
-4.8071006e-06 -6.880501e-06 -8.672628e-06 2.736775e-05 2.1956175e-05 1.7795814e-05 -2.0567677e-06 -3.2356647e-06
-4.236878e-06 2.1572441e-05 1.7744564e-05 1.3546102e-05 4.1412706e-05 3.779705e-05 3.372835e-05 2.1112646e-05
1.4075663e-05 8.349589e-06 5.9741096e-06 3.795296e-06 1.5586469e-06 7.815187e-06 4.309705e-06 1.001937e-06
1.5937712e-05 1.3674418e-05 1.1282034e-05 5.582832e-06 3.4339648e-06 1.8807272e-06 3.413613e-05 2.7978202e-05
2.1915619e-05 8.248345e-06 6.1866967e-06 3.6700183e-06 1.5936146e-05 1.4300248e-05 1.2610228e-05 4.55341e-06
3.2713153e-06 1.6466255e-06 5.820528e-05 5.122228e-05 4.4033608e-05 8.561554e-06 8.079192e-06 6.876584e-06
-9.408089e-06 -9.619267e-06 -9.79343e-06 -1.4684667e-05 -1.2499251e-05 -1.1962474e-05 -2.3773237e-05 -2.189769e-05
-2.2491653e-05 -5.917888e-05 -5.602506e-05 -5.3027517e-05 -6.48037e-05 -5.974036e-05 -5.76775e-05 -3.526206e-05
-3.1812262e-05 -2.9802624e-05 -3.3918306e-05 -3.2381467e-05 -3.129265e-05 -2.061415e-05 -1.8021727e-05 -1.8055172e-05
-2.8606746e-05 -2.7590077e-05 -2.621675e-05 -3.057974e-05 -2.8534692e-05 -2.798782e-05 -4.6905185e-05 -4.2431264e-05
-3.9714403e-05 -4.1854906e-05 -3.922897e-05 -3.789963e-05 -5.2505526e-05 -5.194201e-05 -4.887123e-05 -3.9247432e-05
-3.702782e-05 -3.568949e-05 -0.00011982632 -0.00011232436 -0.00010557339 -3.5033278e-05 -3.5495676e-05 -3.3599914e-05
-1.3081259e-05 -1.5995376e-05 -1.7441978e-05 -0.00018554417 -0.00018288767 -0.00018355496 -1.1654451e-05 -1.534499e-05
-1.5330263e-05 -6.830541e-05 -5.4126347e-05 -4.2990305e-05 -0.00018243426 -0.0001701806 -0.00015899613 -0.00012635236
-0.00011778001 -0.000115722745 -2.8453795e-05 -2.4079112e-05 -1.9041177e-05 -6.0067192e-05 -5.9267e-05 -5.8866925e-05
-8.671144e-05 -7.924604e-05 -7.1869355e-05 -4.1800085e-05 -3.9173032e-05 -3.4942692e-05 -0.00015590817 -0.00013931203
-0.0001284893 -2.2562534e-05 -1.4013527e-05 -4.376912e-06 -6.440143e-05 -5.3976913e-05 -4.3099873e-05 -7.829285e-06
2.8211284e-07 1.01420255e-05 -0.00020009297 -0.00016560899 -0.00013915531 -4.3343414e-05 -3.568949e-05 -2.5236986e-05
-4.570222e-05 -5.9935828e-05 -6.511673e-05 -7.7327466e-05 -8.996769e-05 -9.363479e-05 -5.5986868e-05 -7.392141e-05
-8.5847234e-05 -2.479823e-05 -4.8272657e-05 -7.0906965e-05 -5.037411e-05 -7.465755e-05 -0.000100488425 -7.4575284e-05
-9.7457305e-05 -0.00011186521 -3.225715e-05 -4.9823335e-05 -6.31392e-05 -6.775734e-05 -8.559467e-05 -9.709311e-05
-3.2261858e-05 -4.4491873e-05 -5.35023e-05 -5.6228455e-05 -7.313633e-05 -8.48629e-05 -5.6845776e-05 -7.674936e-05
-9.564342e-05 -3.6072826e-05 -5.4732518e-05 -7.2735485e-05 -2.9337007e-06 -2.1661697e-05 -3.7673086e-05 -3.321348e-05
-5.0103114e-05 -6.612698e-05 -3.900467e-05 -7.661644e-05 -0.00012126733 -8.122612e-06 -2.2299815e-05 -3.4473924e-05
9.390837e-06 1.1766642e-05 1.6242117e-05 -2.7995693e-06 7.028247e-07 4.353691e-06 2.1350465e-05 3.0518582e-05
3.52228e-05 2.925449e-05 4.5091656e-05 5.9344755e-05 2.3903358e-05 4.180214e-05 5.2569976e-05 2.1212842e-05
3.057764e-05 3.992414e-05 1.8986248e-05 2.8361892e-05 3.7412166e-05 2.3149105e-05 3.0477833e-05 3.303769e-05
5.8633573e-06 1.1163604e-05 1.8825489e-05 1.8350507e-05 2.7830967e-05 3.569034e-05 2.703339e-05 3.781659e-05
4.6459685e-05 3.1335036e-05 4.2435957e-05 5.108841e-05 4.9070745e-06 1.6529359e-05 3.4226294e-05 2.7417269e-05
3.8118647e-05 4.7118236e-05 5.0154038e-05 7.9737045e-05 0.00010593927 4.102102e-06 9.118389e-06 2.0328067e-05
1.6101324e-06 7.3300225e-07 -8.582966e-07 -1.5106153e-05 -1.6856166e-05 -1.8997474e-05 3.6106164e-06 4.094533e-06
9.5120566e-07 1.8029334e-06 6.6543016e-06 8.740274e-06 -1.1389039e-05 -6.7110896e-06 -6.2769213e-06 -1.8611053e-06
00000000: ae4c a1b6 0edf e6b6 a780 11b7 cc93 e537
00000010: 872e b837 3848 9537 0007 0ab6 4c24 59b6
00000020: 812a 8eb6 77f6 b437 29da 9437 1144 6337
00000030: 8eb2 2d38 4688 1e38 8a77 0d38 101b b137
00000040: 8326 6c37 3615 0c37 3675 c836 b0b2 7e36
00000050: b332 d135 f91d 0337 169c 9036 4b7a 8635
00000060: fab1 8537 2e6b 6537 f847 3d37 2954 bb36
00000070: 1173 6636 4b6d fc35 642d 0f38 bbb2 ea37
00000080: 6fd7 b737 5f62 0a37 5297 cf36 6f4a 7636
00000090: 9dae 8537 19eb 6f37 8490 5337 7ec9 9836
000000a0: c588 5b36 9f01 dd35 7221 7438 81d7 5638
000000b0: bab0 3838 98a3 0f37 de8b 0737 68bd e636
000000c0: 6fd7 1db7 7062 21b7 764e 24b7 2a5e 76b7
000000d0: e0b3 51b7 6fb2 48b7 a36c c7b7 eeb0 b7b7
000000e0: 75ac bcb7 d736 78b8 73fc 6ab8 dd69 5eb8
000000f0: 39e7 87b8 b991 7ab8 beea 71b8 59e6 13b8
00000100: 286e 05b8 a600 fab7 8143 0eb8 56d1 07b8
00000110: 3a40 03b8 8dec acb7 5d2d 97b7 3075 97b7
00000120: 85f8 efb7 3d71 e7b7 0bec dbb7 bf42 00b8
00000130: c95d efb7 63c7 eab7 0fbc 44b8 39f8 31b8
00000140: 0493 26b8 5d8d 2fb8 c989 24b8 6bf6 1eb8
00000150: 6139 5cb8 4fdc 59b8 15fb 4cb8 9c9d 24b8
00000160: 524e 1bb8 4cb1 15b8 444b fbb8 ae8f ebb8
00000170: 4867 ddb8 b2f0 12b8 31e1 14b8 a2ed 0cb8
00000180: 9477 5bb7 cf2d 86b7 5d50 92b7 a28e 42b9
00000190: 89c5 3fb9 a978 40b9 7c87 43b7 1db9 80b7
000001a0: 7d99 80b7 303f 8fb8 b905 63b8 7d50 34b8
000001b0: d34b 3fb9 8272 32b9 33b8 26b9 747d 04b9
000001c0: a900 f7b8 2db0 f2b8 0fb0 eeb7 80fd c9b7
000001d0: 9eba 9fb7 a8f0 7bb8 7595 78b8 e1e7 76b8
000001e0: dad8 b5b8 e530 a6b8 91b8 96b8 8052 2fb8
000001f0: b94d 24b8 6e8f 12b8 487b 23b9 4a14 12b9
00000200: 15bb 06b9 ac44 bdb7 a41b 6bb7 63dd 92b6
00000210: 410f 87b8 4565 62b8 23c6 34b8 865a 03b7
00000220: 4b75 9734 ab27 2a37 0cd0 51b9 53a7 2db9
00000230: 38ea 11b9 a3cb 35b8 4cb1 15b8 04b4 d3b7
00000240: 63b0 3fb8 9b63 7bb8 478f 88b8 de2a a2b8
00000250: 09ad bcb8 cc5d c4b8 71d3 6ab8 4106 9bb8
00000260: e208 b4b8 cb05 d0b7 5f78 4ab8 e3b3 94b8
00000270: ca48 53b8 7891 9cb8 50bd d2b8 4d65 9cb8
00000280: fe61 ccb8 2d99 eab8 da4b 07b8 66f9 50b8
00000290: 9a69 84b8 f218 8eb8 4a81 b3b8 779e cbb8
000002a0: e850 07b8 c99c 3ab8 a867 60b8 d8d6 6bb8
000002b0: c560 99b8 6cf8 b1b8 b06d 6eb8 80f4 a0b8
000002c0: 2c94 c8b8 e74c 17b8 9890 65b8 9189 98b8
000002d0: 98e0 44b6 24b6 b5b7 2b03 1eb8 b44e 0bb8
000002e0: cf25 52b8 a7ad 8ab8 f298 23b8 23ad a0b8
000002f0: e750 feb8 5a46 08b7 7d10 bbb7 1898 10b8
00000300: 568d 1d37 5869 4537 ae3f 8837 3ce0 3bb6
00000310: bfa9 3c35 ec15 9236 c619 b337 1401 0038
00000320: 32bc 1338 8a67 f537 cc20 3d38 f2e8 7838
00000330: 1284 c837 b554 2f38 957e 5c38 3bf2 b137
00000340: 7e40 0038 3874 2738 a844 9f37 b3ea ed37
00000350: 02eb 1c38 5330 c237 a6aa ff37 f391 0a38
00000360: dbbd c436 504b 3b37 6eeb 9d37 6aef 9937
00000370: 8c76 e937 36b2 1538 c3c5 e237 419d 1e38
00000380: b5dd 4238 bd6d 0338 43fd 3138 c347 5638
00000390: 73a7 a436 87a8 8a37 348e 0f38 23fe e537
000003a0: 96e1 1f38 d2a0 4538 7d5c 5238 8038 a738
000003b0: b62b de38 caa4 8936 2ffb 1837 3186 aa37
000003c0: ba1b d835 88c3 4435 b165 66b5 6f70 7db7
000003d0: 5766 8db7 c45c 9fb7 eb4d 7236 c563 8936
000003e0: 5b56 7f35 52fc f135 0448 df36 31a3 1237
000003f0: 8d13 3fb7 d22f e1b6 589e d2b6 17cb f9b5

exp_avg_sq f4 [16, 16, 3]
3.162481e-09 3.1154055e-09 3.0635374e-09 1.6685318e-08 1.4320303e-08 1.23669945e-08 6.417703e-10 5.7991995e-10
7.221928e-10 1.7315914e-08 1.2671518e-08 9.309954e-09 6.882977e-08 6.055e-08 5.3855526e-08 6.118635e-09
3.5951395e-09 2.2345095e-09 1.754817e-09 9.386056e-10 5.870444e-10 1.1788734e-09 7.8730517e-10 7.6814466e-10
6.940124e-09 5.57957e-09 4.5486956e-09 1.2070143e-09 7.368436e-10 6.256342e-10 3.069371e-08 2.3218778e-08
1.7662543e-08 5.302197e-09 3.614123e-09 2.6033316e-09 9.446255e-09 7.3537487e-09 5.888423e-09 3.3746532e-09
2.2249842e-09 1.5514089e-09 1.2755021e-07 1.0305346e-07 8.2914674e-08 4.0137182e-09 2.9432372e-09 2.1441944e-09
1.8159534e-08 1.8816479e-08 2.003754e-08 6.832121e-09 5.784626e-09 5.768168e-09 3.8059383e-08 4.0244263e-08
4.313467e-08 1.3937634e-07 1.4238051e-07 1.462299e-07 8.377137e-08 8.49651e-08 8.689208e-08 4.970685e-08
5.11337e-08 5.4158768e-08 5.9499552e-08 6.173924e-08 6.459237e-08 2.1354294e-08 2.2461908e-08 2.3878602e-08
2.1121748e-08 2.143802e-08 2.2132985e-08 4.8808e-08 5.0735817e-08 5.378192e-08 5.2171668e-08 5.20018e-08
5.2466337e-08 8.5780805e-08 8.79043e-08 9.016884e-08 1.0960561e-07 1.128202e-07 1.17997544e-07 8.258584e-08
8.48261e-08 8.7458524e-08 4.2974708e-07 4.335484e-07 4.402451e-07 5.223505e-08 5.387635e-08 5.6018628e-08
3.631102e-08 4.058533e-08 4.7554682e-08 8.583928e-07 9.330399e-07 1.020157e-06 1.1349011e-07 1.1918012e-07
1.2535723e-07 8.188632e-07 9.1564766e-07 1.0044031e-06 2.1424157e-06 2.307761e-06 2.440644e-06 9.1334954e-07
1.0325008e-06 1.1651908e-06 1.9126146e-07 2.1535934e-07 2.398814e-07 4.2102928e-07 4.6614252e-07 5.1319637e-07
3.001246e-07 3.3845862e-07 3.8011e-07 2.3625697e-07 2.6245246e-07 2.901758e-07 1.6732937e-06 1.8755262e-06
2.075733e-06 4.65251e-07 5.205583e-07 5.7173077e-07 1.6911791e-07 1.9115927e-07 2.154727e-07 2.5930834e-07
2.906091e-07 3.2112007e-07 4.358546e-06 4.840607e-06 5.262683e-06 8.6636916e-08 9.988391e-08 1.1628731e-07
7.711997e-08 5.5235223e-08 4.8072803e-08 1.1259235e-07 1.3867319e-07 1.7232622e-07 9.3898024e-08 6.7128425e-08
6.5644116e-08 4.507916e-07 3.405958e-07 2.538474e-07 3.1478783e-07 2.7318524e-07 2.5907173e-07 2.4256187e-07
2.1092042e-07 2.0994568e-07 1.8437528e-07 1.2903268e-07 9.3559e-08 1.0087267e-07 1.05787755e-07 1.2507415e-07
1.0411134e-07 8.708216e-08 7.833517e-08 1.4766871e-07 1.0510482e-07 9.0787296e-08 2.6940015e-07 2.6210225e-07
2.6711086e-07 2.2308248e-07 1.7739606e-07 1.4764849e-07 4.61423e-07 3.148459e-07 1.9611653e-07 2.1038448e-07
1.5784545e-07 1.2257141e-07 1.4087107e-06 1.1204023e-06 8.8430636e-07 2.2388758e-07 1.6585078e-07 1.1533896e-07
2.043614e-08 2.1922874e-08 2.7954426e-08 1.3726894e-07 1.01841316e-07 7.575381e-08 3.430541e-08 4.295485e-08
5.6739594e-08 1.5324676e-07 1.4085926e-07 1.4197954e-07 2.6187598e-07 2.1770306e-07 1.8952679e-07 1.8270832e-07
1.4319511e-07 1.2222249e-07 4.9030113e-08 5.0464898e-08 5.918645e-08 6.645644e-08 5.2271844e-08 4.7138055e-08
6.734575e-08 5.4667748e-08 4.673067e-08 5.593034e-08 5.6988842e-08 6.721243e-08 2.9068298e-07 2.2448678e-07
1.7368798e-07 8.687865e-08 7.970175e-08 8.1578e-08 7.138969e-08 8.0371066e-08 9.952059e-08 6.282483e-08
6.3568464e-08 7.1755416e-08 7.1871926e-07 6.2459446e-07 5.7056195e-07 4.0423238e-08 3.9313065e-08 4.314128e-08
1.2595629e-09 9.526421e-10 7.672804e-10 1.0945664e-08 1.0834628e-08 1.0100096e-08 1.0430727e-09 1.0579457e-09
1.3741217e-09 2.2203983e-08 1.4711922e-08 1.0364474e-08 1.8819982e-08 1.41512775e-08 1.3079289e-08 2.0987636e-09
00000000: f452 5931 cb16 5631 5286 5231 6753 8f32
00000010: 5c05 7632 9e76 5432 9268 3030 3d68 1f30
00000020: cd83 4630 19be 9432 edb1 5932 9cf1 1f32
00000030: 91cf 9333 b707 8233 c74e 6733 153c d231
00000040: 5d0e 7731 e88d 1931 222e f130 4000 8130
00000050: 945d 2130 ec05 a230 ad69 5830 6025 5330
00000060: fa75 ee31 6bb6 bf31 c04a 9c31 0ae4 a530
00000070: c28a 4a30 18f9 2b30 17d4 0333 a272 c732
00000080: 58b8 9732 9e2e b631 535c 7831 4be6 3231
00000090: 1249 2232 42ac fc31 1e53 ca31 87e7 6731
000000a0: 56e6 1831 5939 d530 bcf4 0834 3d4e dd33
000000b0: d30e b233 0ae9 8931 fa41 4a31 1159 1331
000000c0: 3dfd 9b32 e0a1 a132 041f ac32 f9bf ea31
000000d0: 1cc2 c631 5831 c631 bc76 2333 09d9 2c33
000000e0: 1243 3933 7aa7 1534 42e1 1834 5e03 1d34
000000f0: cce5 b333 0f76 b633 6d99 ba33 427d 5533
00000100: 199e 5b33 329c 6833 738c 7f33 8295 8433
00000110: 08b6 8a33 976e b732 42f2 c032 9a1d cd32
00000120: 376f b532 b426 b832 f31e be32 f7a0 5133
00000130: 9fe8 5933 d9fd 6633 5b13 6033 9558 5f33
00000140: 5957 6133 7f36 b833 e6c5 bc33 d8a2 c133
00000150: 5260 eb33 9047 f233 d665 fd33 0c5a b133
00000160: a429 b633 d5d0 bb33 fdb7 e634 70c2 e834
00000170: d35a ec34 0b59 6033 ac65 6733 2299 7033
00000180: 64f4 1b33 0b50 2e33 ed3e 4c33 4e6c 6635
00000190: 0476 7a35 54ec 8835 d9b7 f333 f7ef ff33
000001a0: ef99 0634 dacf 5b35 d4ca 7535 07cf 8635
000001b0: 6cc6 0f36 08df 1a36 f2c9 2336 e72c 7535
000001c0: 7594 8a35 a763 9c35 8d5d 4d34 863d 6734
000001d0: 0cc9 8034 d309 e234 2442 fa34 96c2 0935
000001e0: d020 a134 66b5 b534 ec11 cc34 d2ad 7d34
000001f0: 31e7 8c34 75c9 9b34 ef95 e035 97ba fb35
00000200: d24c 0b36 9cc7 f934 7ebc 0b35 0a79 1935
00000210: c796 3534 7641 4d34 af5c 6734 1137 8b34
00000220: 0305 9c34 6866 ac34 a03f 9236 7f6c a236
00000230: 1a96 b036 260d ba33 c37f d633 a0b9 f933
00000240: 279d a533 c53b 6d33 9b78 4e33 4dca f133
00000250: 32e6 1434 ac08 3934 fca4 c933 3e28 9033
00000260: 3cf8 8c33 5304 f234 21db b634 8548 8834
00000270: 1c00 a934 4baa 9234 8c16 8b34 7339 8234
00000280: 5d79 6234 6e6d 6134 b1f8 4534 3c8c 0a34
00000290: 9bea c833 569f d833 6f2d e333 1f4c 0634
000002a0: d193 df33 ec01 bb33 3739 a833 de8e 1e34
000002b0: fcb5 e133 d8f6 c233 13a2 9034 0fb7 8c34
000002c0: 7067 8f34 7288 6f34 427a 3e34 4f89 1e34
000002d0: 7fb9 f734 1708 a934 1a94 5234 0ce6 6134
000002e0: 3a7c 2934 2c9c 0334 ee12 bd35 bb60 9635
000002f0: 1261 6d35 c065 7034 b714 3234 44b0 f733
00000300: 8c8b af32 e950 bc32 6f20 f032 3364 1334
00000310: dbb3 da33 19ae a233 3257 1333 5b7d 3833
00000320: d8b1 7333 268c 2434 193f 1734 0a73 1834
00000330: f697 8c34 c3c1 6934 ba80 4b34 7b2e 4434
00000340: 2cc1 1934 433c 0334 2e95 5233 bebe 5833
00000350: 3134 7e33 d0b6 8e33 8081 6033 d774 4a33
00000360: b89f 9033 d3cb 6a33 eab4 4833 0f38 7033
00000370: e5c3 7433 6d56 9033 2a0f 9c34 750a 7134
00000380: fd7e 3a34 0b92 ba33 8028 ab33 fb2f af33
00000390: e64e 9933 7698 ac33 06b8 d533 51ea 8633
000003a0: 2283 8833 f517 9a33 03ee 4035 cea9 2735
000003b0: b828 1935 d29d 2d33 2cd9 2833 574a 3933
000003c0: ee1c ad30 1dee 8230 8fe8 5230 8a0b 3c32
000003d0: 3323 3a32 b184 2d32 dc5b 8f30 2867 9130
000003e0: 9cdb bc30 13bb be32 b8bf 7c32 700f 3232
000003f0: 94a9 a132 fa1d 7332 52b3 6032 d739 1031

exp_avg f4 [16]
-7.6784585e-05 2.0589932e-05 0.00045267452 3.182585e-05 7.350637e-05 6.86106e-05 -2.8975715e-05 8.870892e-05
0.00014247188 0.00014481814 0.00010132491 1.039924e-06 -3.4678324e-05 2.446736e-05 -0.000104137514 -5.0788163e-05
00000000: 6907 a1b8 8bb8 ac37 f254 ed39 bf7c 0538
00000010: 6f27 9a38 09e3 8f38 e010 f3b7 3d09 ba38
00000020: 8164 1539 53da 1739 667e d438 8493 8b35
00000030: 9173 11b8 413f cd37 6764 dab8 6005 55b8

exp_avg_sq f4 [16]
2.854065e-07 2.0498669e-07 4.408249e-06 4.7413937e-07 3.52518e-07 1.8240854e-07 2.9387027e-07 8.835888e-07
9.144939e-07 1.113069e-06 1.5022992e-07 3.3779784e-08 4.371819e-08 6.766341e-08 2.5662703e-07 5.0908244e-07
00000000: f839 9934 501a 5c34 92ea 9336 388d fe34
00000010: b441 bd34 14dc 4334 39c5 9d34 c32f 6d35
00000020: 8b7b 7535 c264 9535 e34e 2134 4415 1133
00000030: a9c4 3b33 5a4e 9133 8dc6 8934 e1a7 0835

exp_avg f4 [16, 16, 3]
2.2637627e-05 2.4266572e-05 2.0166624e-05 -2.8875113e-05 -2.2233013e-05 -2.5894511e-05 2.7848894e-06 2.7756817e-06
-5.6681956e-06 -0.00011100661 -0.000117553245 -0.000118522374 -0.0001025407 -0.00011254925 -0.00012303288 -1.7309005e-05
-1.518774e-05 -2.0328831e-05 -2.6888754e-05 -2.4925279e-05 -2.9990992e-05 -1.0618988e-05 1.1007516e-05 1.6919645e-05
-8.281875e-06 -1.029068e-05 -1.500114e-05 -4.0477025e-05 -3.919613e-05 -4.2843854e-05 -0.00016440178 -0.00017161106
-0.00017334864 -2.0417508e-05 -2.2428261e-05 -3.058791e-05 -1.2869973e-05 -2.593217e-05 -2.9185165e-05 -4.1066825e-05
-5.323228e-05 -6.773639e-05 -0.00020265709 -0.00021796947 -0.00023168343 -9.071887e-06 -2.360375e-05 -3.659531e-05
-2.5706766e-05 -2.9387478e-05 -3.2708547e-05 -1.615901e-05 -2.1085985e-05 -2.5224814e-05 -3.0072002e-05 -2.0042828e-05
-2.3727185e-05 -3.0407957e-05 -3.0839354e-05 -2.8269364e-05 -2.8411509e-05 -2.4763816e-05 -1.6141632e-05 -3.054751e-05
-2.5376843e-05 -2.8297458e-05 -2.9231483e-05 -2.8169046e-05 -2.777437e-05 -1.4857747e-05 -1.0511596e-05 -1.0153531e-05
-2.2019682e-05 -2.3032946e-05 -2.1951999e-05 -2.4531351e-05 -2.3568016e-05 -3.153011e-05 -1.6207612e-05 -1.65185e-05
-1.0851374e-05 -8.021748e-06 -1.2424027e-05 -1.4716509e-05 -4.263033e-05 -4.3382825e-05 -5.0595314e-05 -2.7783248e-05
-2.8138686e-05 -2.3843686e-05 -8.928274e-05 -7.1449445e-05 -5.1635467e-05 -2.6623758e-05 -3.0820436e-05 -3.0948366e-05
2.3966448e-05 2.569786e-05 2.418522e-05 -1.0984884e-05 -1.5337044e-05 -5.5586383e-06 9.3869185e-06 3.7117657e-06
1.2814837e-05 4.455343e-05 3.259641e-05 3.2196047e-05 0.00010017833 8.188693e-05 6.283718e-05 4.492586e-05
3.538443e-05 3.5016685e-05 4.2661497e-05 3.5774246e-05 2.9138482e-05 -1.9920732e-05 -1.8189103e-05 -1.0651389e-05
4.061552e-06 7.821654e-06 1.5391275e-05 2.2136612e-05 1.3358597e-05 1.9297242e-05 6.463954e-05 5.0261227e-05
4.367887e-05 1.2091713e-06 -4.125156e-06 1.4500599e-06 4.8980022e-05 4.100961e-05 4.5082204e-05 5.074235e-05
3.933618e-05 3.309708e-05 0.0002036799 0.00016983287 0.00013855423 5.967642e-05 4.5544042e-05 3.60817e-05
-1.3755369e-05 -1.0952525e-05 -9.083564e-06 -1.892658e-05 -1.812344e-05 -1.6155092e-05 -1.4372378e-05 -1.2381912e-05
-8.310729e-06 -3.1110514e-05 -3.3360895e-05 -3.0281677e-05 -1.177056e-05 -1.4652053e-05 -1.7734988e-05 -1.9076235e-05
-2.0021584e-05 -1.750424e-05 -1.8474286e-05 -1.8715107e-05 -1.706277e-05 -1.6082902e-05 -1.6405635e-05 -1.45413505e-05
-1.8535462e-05 -1.5805057e-05 -1.0995402e-05 -2.3750354e-05 -2.351397e-05 -2.0701269e-05 -2.4480196e-05 -2.9498247e-05
-3.231617e-05 -1.4662894e-05 -1.410819e-05 -1.1967464e-05 -2.3357035e-05 -2.0776499e-05 -1.1518145e-05 -1.4364882e-05
-1.2348868e-05 -9.112637e-06 -3.4208195e-05 -3.985041e-05 -4.081289e-05 -8.444277e-06 -7.011833e-06 -3.9416414e-06
-4.2710206e-05 -3.3211283e-05 -3.2824206e-05 -2.7095477e-05 -3.250744e-05 -3.178865e-05 -1.7921343e-06 3.023584e-06
-2.8328293e-06 -1.1399835e-05 -5.443386e-06 3.301081e-06 -2.5352732e-05 3.3739757e-06 3.312729e-05 -4.6962523e-05
-3.3196902e-05 -3.2923246e-05 -3.1515778e-05 -1.8671266e-05 -7.644792e-06 -2.0445004e-05 -1.516571e-05 -1.744975e-05
-3.1476487e-05 -3.302639e-05 -2.3588573e-05 -1.5331467e-05 -1.6621896e-05 -2.5368783e-05 -3.235905e-05 -2.4524306e-05
-3.6964293e-06 -1.4910952e-05 -1.7615206e-05 -1.578301e-05 -2.8155477e-05 -2.159021e-05 -2.2674403e-05 -1.8875253e-05
-6.4069295e-06 1.2852768e-05 -6.992369e-05 -1.4374592e-05 4.2719726e-05 -4.3076623e-05 -2.2339607e-05 -1.2960542e-05
-4.22453e-05 -2.5911317e-05 -2.2812706e-05 -4.6534187e-05 -2.4429983e-05 -2.1696882e-05 -4.308677e-05 -5.8188612e-05
-2.6871336e-05 -5.4804914e-05 -4.977749e-05 -4.9319857e-05 -3.635778e-05 -6.5749424e-05 -7.433097e-05 -4.4527944e-05
00000000: efe5 bd37 1190 cb37 7f2b a937 d538 f2b7
00000010: 0881 bab7 0a38 d9b7 09e4 3a36 d945 3a36
00000020: 6e31 beb6 38cc e8b8 eb86 f6b8 378f f8b8
00000030: 1e0b d7b8 6b08 ecb8 6302 01b9 ce32 91b7
00000040: d9ce 7eb7 d587 aab7 298f e1b7 a116 d1b7
00000050: 2a95 fbb7 3528 32b7 ecac 3837 a9ee 8d37
00000060: 62f2 0ab7 22a6 2cb7 68ad 7bb7 e0c5 29b8
00000070: 8666 24b8 3db3 33b8 4463 2cb9 7ef2 33b9
00000080: ecc4 35b9 4446 abb7 5324 bcb7 854b 00b8
00000090: 1dec 57b7 e988 d9b7 aad2 f4b7 2b3f 2cb8
000000a0: ba45 5fb8 b30d 8eb8 5980 54b9 bc8e 64b9
000000b0: 0cf0 72b9 7533 18b7 ab00 c6b7 ea7d 19b8
000000c0: dca4 d7b7 2185 f6b7 8930 09b8 368d 87b7
000000d0: cfe1 b0b7 e099 d3b7 2243 fcb7 a521 a8b7
000000e0: be09 c7b7 9714 ffb7 8159 01b8 ff23 edb7
000000f0: 4055 eeb7 e4bb cfb7 e467 87b7 2420 00b8
00000100: 5be0 d4b7 5460 edb7 2236 f5b7 914c ecb7
00000110: 01fd e8b7 8a45 79b7 f65a 30b7 1559 2ab7
00000120: e8b6 b8b7 e036 c1b7 8f25 b8b7 adc8 cdb7
00000130: eeb3 c5b7 333f 04b8 95f5 87b7 3591 8ab7
00000140: 4c0e 36b7 2595 06b7 ca70 50b7 ede6 76b7
00000150: f8cd 32b8 f4f5 35b8 4e36 54b8 1210 e9b7
00000160: 5e0b ecb7 ed03 c8b7 4e3d bbb8 21d7 95b8
00000170: 2993 58b8 1656 dfb7 3145 01b8 8ece 01b8
00000180: 8e0b c937 bc91 d737 5de1 ca37 b84b 38b7
00000190: 0da8 80b7 5784 bab6 827c 1d37 a617 7936
000001a0: 4eff 5637 e2de 3a38 21b8 0838 3e0a 0738
000001b0: d516 d238 b6ba ab38 74c7 8338 c66e 3c38
000001c0: be69 1438 e1de 1238 6fef 3238 4e0c 1638
000001d0: 6a6e f437 721b a7b7 cd94 98b7 5eb3 32b7
000001e0: 7748 8836 c039 0337 831c 8137 03b2 b937
000001f0: bd1e 6037 83e0 a137 178f 8738 95cf 5238
00000200: d433 3738 cf4a a235 d26a 8ab6 ae9f c235
00000210: e66f 4d38 bc01 2c38 a616 3d38 2fd4 5438
00000220: e7fc 2438 b8d1 0a38 e892 5539 2a15 3239
00000230: de48 1139 114d 7a38 8b06 3f38 6e56 1738
00000240: dcc6 66b7 bdc0 37b7 9c65 18b7 85c4 9eb7
00000250: cb07 98b7 cc84 87b7 e520 71b7 e8bb 4fb7
00000260: 4f6e 0bb7 a97c 02b8 fdec 0bb8 6805 feb7
00000270: 2c7a 45b7 17d2 75b7 99c5 94b7 e705 a0b7
00000280: 06f4 a7b7 12d6 92b7 3af9 9ab7 63fe 9cb7
00000290: 0522 8fb7 c5e9 86b7 d59e 89b7 a0f6 73b7
000002a0: 9a7c 9bb7 1a95 84b7 e478 38b7 7f3b c7b7
000002b0: de3f c5b7 a3a7 adb7 d25a cdb7 0173 f7b7
000002c0: 398b 07b8 a600 76b7 37b2 6cb7 dec7 48b7
000002d0: daee c3b7 3149 aeb7 0e3e 41b7 b300 71b7
000002e0: fc2d 4fb7 7ae2 18b7 c57a 0fb8 0d25 27b8
000002f0: 822e 2bb8 e5ab 0db7 3047 ebb6 7142 84b6
00000300: bc23 33b8 584c 0bb8 b9ac 09b8 184b e3b7
00000310: 9958 08b8 ce54 05b8 4489 f0b5 c7e8 4a36
00000320: a31b 3eb6 eb41 3fb7 54a6 b6b6 2488 5d36
00000330: 94ac d4b7 766c 6236 28f2 0a38 a0f9 44b8
00000340: e73c 0bb8 1117 0ab8 cf2f 04b8 3da0 9cb7
00000350: 2242 00b7 5081 abb7 3a70 7eb7 0e61 92b7
00000360: 9f05 04b8 d185 0ab8 13e0 c5b7 139c 80b7
00000370: 406f 8bb7 0ccf d4b7 44b9 07b8 8cb9 cdb7
00000380: 2c10 78b6 0d2a 7ab7 5ec4 93b7 c265 84b7
00000390: 6d2f ecb7 9f1c b5b7 e934 beb7 4c56 9eb7
000003a0: 1bfb d6b6 38a2 5737 ffa3 92b8 672a 71b7
000003b0: f52d 3338 2cad 34b8 f165 bbb7 1b71 59b7
000003c0: 8c30 31b8 215c d9b7 ea5d bfb7 b42d 43b8
000003d0: fdee ccb7 b301 b6b7 11b8 34b8 8c0f 74b8
000003e0: c169 e1b7 54de 65b8 2cc8 50b8 cbdc 4eb8
000003f0: de7e 18b8 f4e2 89b8 23e2 9bb8 84c3 3ab8

exp_avg_sq f4 [16, 16, 3]
1.7836163e-08 1.6978984e-08 2.0325206e-08 1.0659124e-07 1.5174302e-07 1.8657059e-07 2.2282867e-08 2.2394408e-08
2.4060823e-08 6.174875e-07 7.037413e-07 7.503604e-07 7.630663e-07 8.512273e-07 9.3185366e-07 1.0864752e-07
1.7417346e-07 2.275189e-07 8.865733e-08 1.0929571e-07 1.1978682e-07 1.2448481e-07 1.3217729e-07 1.1958917e-07
1.5974088e-08 2.7041294e-08 3.8910578e-08 1.18743685e-07 1.6875555e-07 2.0442307e-07 1.7190589e-06 2.0041336e-06
2.2102327e-06 4.3481023e-08 6.6843704e-08 8.497911e-08 3.17595e-08 3.28153e-08 3.8122838e-08 1.3438193e-07
1.4857848e-07 1.6642142e-07 3.0448675e-06 3.3868334e-06 3.6889528e-06 3.960359e-08 4.033033e-08 5.1686463e-08
3.7286426e-08 2.9927822e-08 2.4349443e-08 7.765533e-09 6.411937e-09 5.703149e-09 3.1748385e-08 2.5769292e-08
2.0264372e-08 4.4322636e-08 3.7676063e-08 3.5371688e-08 6.200898e-08 4.445949e-08 4.533453e-08 6.5580814e-08
5.0107126e-08 4.0474625e-08 4.7465043e-08 3.6275797e-08 2.8716332e-08 1.5185117e-08 1.40722145e-08 1.2362487e-08
1.4840719e-08 1.3593654e-08 1.0423285e-08 3.2693983e-08 2.5568768e-08 2.0675728e-08 1.348049e-08 1.1588356e-08
1.9907118e-08 9.519546e-09 7.67215e-09 6.4360233e-09 7.647598e-08 6.254673e-08 4.9700134e-08 2.7719812e-08
2.1237653e-08 1.756769e-08 2.8951953e-07 2.1173591e-07 1.9446331e-07 5.6701047e-08 4.4705665e-08 3.3887346e-08
1.0629259e-08 1.2224884e-08 1.5108062e-08 4.000732e-09 3.7002648e-09 3.3803278e-09 7.3190027e-09 8.152492e-09
9.631315e-09 2.8415991e-08 2.2195799e-08 1.8184835e-08 9.666051e-08 9.5778375e-08 1.0239768e-07 2.611733e-08
2.6499558e-08 3.1290718e-08 1.7175728e-08 1.7923357e-08 2.1416621e-08 9.181546e-09 9.9302655e-09 1.1123025e-08
3.1201925e-09 2.9317426e-09 2.6258689e-09 7.361732e-09 6.532887e-09 8.13228e-09 7.460251e-08 5.7733413e-08
4.54522e-08 1.3456395e-09 1.0957821e-09 1.3741908e-09 1.5674194e-08 1.4744034e-08 1.5849583e-08 1.685552e-08
1.499619e-08 1.5135333e-08 3.2399896e-07 3.0617332e-07 3.2011567e-07 2.3481945e-08 2.3238762e-08 2.5751126e-08
1.3168313e-08 1.0090883e-08 6.8627224e-09 5.5738383e-09 5.0674753e-09 5.444541e-09 7.8854345e-09 4.5391797e-09
4.777038e-09 5.72697e-08 5.1871684e-08 4.4516717e-08 1.4608429e-07 1.3959135e-07 1.2988131e-07 4.7243137e-08
4.0134612e-08 2.991917e-08 3.8755147e-08 3.166083e-08 2.4529294e-08 5.8478005e-09 4.2534647e-09 4.05086e-09
3.530769e-09 2.7122067e-09 2.4996163e-09 2.1448928e-08 1.6057573e-08 1.1743729e-08 1.1615065e-07 1.2214923e-07
1.2308271e-07 4.5708513e-09 3.3479515e-09 3.2797318e-09 2.6780944e-08 2.0451553e-08 1.2475413e-08 2.2022535e-08
1.8951528e-08 1.5933262e-08 5.638482e-07 5.474668e-07 5.0114073e-07 2.807876e-08 2.6645171e-08 2.2190632e-08
1.7794582e-08 1.5542874e-08 1.2738762e-08 5.8348217e-08 5.015545e-08 4.335685e-08 2.5721983e-08 4.6476284e-08
4.881514e-08 1.8731407e-07 1.6019857e-07 1.3470934e-07 4.7365043e-07 3.7733216e-07 2.883393e-07 5.5453555e-08
5.395831e-08 5.1231858e-08 5.214901e-08 3.705008e-08 2.7441526e-08 5.760232e-08 8.094004e-08 8.8265196e-08
1.3390524e-08 1.3625865e-08 1.32735485e-08 4.363741e-08 4.3421384e-08 3.738023e-08 5.8974007e-07 5.50332e-07
4.947853e-07 2.0634527e-08 1.902804e-08 1.6901508e-08 2.5115927e-08 2.0020462e-08 1.7175365e-08 9.1998096e-08
8.239488e-08 6.7408884e-08 1.8405422e-06 1.5033532e-06 1.177446e-06 8.303772e-08 6.798548e-08 4.7401283e-08
1.4807954e-07 5.660829e-08 3.0001534e-08 3.7336584e-08 7.396194e-08 1.3727498e-07 3.7282557e-08 9.7216464e-08
1.3854647e-07 1.4394638e-07 9.4211984e-08 2.3689053e-07 2.456332e-07 1.7890697e-07 5.1573295e-07 1.4606856e-07
00000000: 2336 9932 2ed9 9132 9a97 ae32 27e7 e433
00000010: ceee 2234 2254 4834 8b68 bf32 d35d c032
00000020: 4fae ce32 6bc1 2535 bce8 3c35 606c 4935
00000030: 84d5 4c35 e57f 6435 7f24 7a35 9b51 e933
00000040: 7004 3b34 eb4b 7434 e263 be33 f4b5 ea33
00000050: c09e 0034 20aa 0534 9eec 0d34 6c68 0034
00000060: 6437 8932 6f48 e832 a21e 2733 0800 ff33
00000070: 2c33 3534 637f 5b34 6aba e635 c17e 0636
00000080: 8253 1436 e4bf 3a33 b78b 8f33 c37d b633
00000090: f167 0833 cef0 0c33 81bc 2333 a04a 1034
000000a0: f188 1f34 92b1 3234 6d56 4c36 5b49 6336
000000b0: ba8f 7736 9c18 2a33 ab37 2d33 defd 5d33
000000c0: dc24 2033 fd89 0033 fe28 d132 2d69 0532
000000d0: ff4f dc31 6ef5 c331 b85b 0833 465b dd32
000000e0: d311 ae32 415d 3e33 45d1 2133 95eb 1733
000000f0: cc29 8533 baf3 3e33 d8b5 4233 6fd5 8c33
00000100: 5e35 5733 52d6 2d33 5edc 4b33 a9cd 1b33
00000110: e2ab f632 6d70 8232 41c2 7132 cb62 5432
00000120: 2cf6 7e32 8689 6932 1812 3332 6a6b 0c33
00000130: 51a2 db32 689a b132 d297 6732 2116 4732
00000140: 3700 ab32 688b 2332 79ce 0332 dc23 dd31
00000150: 1d3b a433 6e51 8633 e075 5533 831c ee32
00000160: 186e b632 c2e7 9632 436f 9b34 8659 6334
00000170: abcd 5034 7687 7333 6602 4033 888b 1133
00000180: fa9b 3632 9c05 5232 fbc6 8132 d076 8931
00000190: bf47 7e31 5b4b 6831 a17a fb31 0a0f 0c32
000001a0: f976 2532 6d17 f432 14a9 be32 e034 9c32
000001b0: ad93 cf33 b8ae cd33 b8e5 db33 9e58 e032
000001c0: 25a1 e332 8264 0633 d389 9332 e1f5 9932
000001d0: a6f7 b732 debc 1d32 c599 2a32 9517 3f32
000001e0: 026b 5631 c377 4931 c672 3431 7bf2 fc31
000001f0: e277 e031 25b6 0b32 2a35 a033 8ff6 7733
00000200: 3937 4333 7bf1 b830 689a 9630 0ade bc30
00000210: eba3 8632 f34c 7d32 9a25 8832 aec9 9032
00000220: f8d0 8032 f302 8232 14f2 ad34 2460 a434
00000230: 5ddc ab34 58b5 c932 949e c732 5333 dd32
00000240: da3a 6232 2c5c 2d32 25cd eb31 0084 bf31
00000250: fc1d ae31 b012 bb31 8278 0732 0cf7 9b31
00000260: 4523 a431 b3f8 7533 85c9 5e33 a632 3f33
00000270: 58db 1c34 94e2 1534 8175 0b34 61e8 4a33
00000280: 7960 2c33 7a80 0033 bc73 2633 73fb 0733
00000290: 7db4 d232 cced c831 df25 9231 be2f 8b31
000002a0: f2a1 7231 a561 3a31 b7c5 2b31 b13e b832
000002b0: faee 8932 77c1 4932 7f6e f933 2028 0334
000002c0: b828 0434 a20d 9d31 c911 6631 a761 6131
000002d0: eb0b e632 71ad af32 7253 5632 112c bd32
000002e0: daca a232 9ddd 8832 5a5b 1735 a2f5 1235
000002f0: 2186 0635 d931 f132 5ae1 e432 b79d be32
00000300: b3da 9832 2483 8532 abd9 5a32 8b9a 7a33
00000310: 806a 5733 5c37 3a33 3df3 dc32 379d 4733
00000320: d0a8 5133 8020 4934 0c03 2c34 9fa4 1034
00000330: 054a fe34 2394 ca34 0dcd 9a34 d42b 6e33
00000340: cabf 6733 060a 5c33 71fa 5f33 fe20 1f33
00000350: 8eb8 eb32 6c66 7733 42d1 ad33 4e8c bd33
00000360: 260c 6632 3017 6a32 af09 6432 d76b 3b33
00000370: 517e 3a33 ff8b 2033 a14e 1e35 87ba 1335
00000380: 63d1 0435 ce3f b132 1a73 a332 cf2e 9132
00000390: 82be d732 76f9 ab32 0789 9332 7d90 c533
000003a0: 10f1 b033 6dc2 9033 8c08 f735 d3c6 c935
000003b0: bd08 9e35 7852 b233 6aff 9133 4396 4b33
000003c0: cbff 1e34 7921 7333 09db 0033 025c 2033
000003d0: 02d5 9e33 dc65 1334 9b20 2033 51c5 d033
000003e0: 5dc3 1434 ae8f 1a34 9651 ca33 f95b 7e34
000003f0: 92df 8334 9319 4034 e670 0a35 05d7 1c34

exp_avg f4 [16]
0.0001211073 7.9671074e-05 -3.5681234e-05 8.504076e-06 -2.0799485e-05 1.8906594e-05 0.0001033619 -2.3868993e-06
-0.00048812042 -8.5998356e-05 0.00014199057 -3.9938386e-05 0.00016366788 -0.00018481689 -0.00018192155 -5.1125417e-06
00000000: fdfa fd38 1515 a738 6fa8 15b8 baac 0e37
00000010: 8e7a aeb7 9a99 9e37 ffc3 d838 9e2e 20b6
00000020: 6aea ffb9 045a b4b8 4ee3 1439 8483 27b8
00000030: 439e 2b39 68cb 41b9 32c2 3eb9 668c abb6

exp_avg_sq f4 [16]
1.4379041e-06 2.3859374e-07 2.2387873e-07 4.2257586e-08 5.9540537e-07 7.1300155e-07 8.715938e-07 1.0100505e-06
3.0520553e-06 1.2699892e-06 1.8023012e-07 7.794253e-07 4.204247e-07 2.9421233e-07 2.4944575e-07 1.4105856e-07
00000000: 02fe c035 1318 8034 5163 7034 b57e 3533
00000010: f2d3 1f35 1865 3f35 78f7 6935 1291 8735
00000020: e9d1 4c36 7f74 aa35 4785 4134 b339 5135
00000030: bbb6 e134 3cf4 9d34 90eb 8534 e275 1734

exp_avg f4 [16, 16, 3]
4.709609e-05 3.0022355e-05 5.8813723e-05 2.4954882e-06 1.4224354e-05 6.091802e-05 5.067689e-05 2.2836082e-05
-1.3081408e-05 5.980218e-06 5.2201598e-05 8.452121e-05 -2.9834775e-06 2.9619807e-05 2.20642e-05 6.716823e-05
5.807649e-05 7.688751e-05 4.2367392e-05 5.613224e-05 4.3726155e-05 3.5649235e-05 4.1658666e-05 5.1560513e-05
-1.2803456e-05 8.333108e-06 2.022513e-05 3.91294e-05 -8.533801e-06 1.6129177e-05 -2.7243956e-05 2.8797227e-05
9.8319026e-05 2.7789886e-06 9.697967e-06 4.607393e-05 3.0177314e-05 2.9001345e-05 2.8528899e-05 1.1143429e-05
3.205262e-05 1.8143932e-05 7.7701574e-05 0.00016416586 0.00019141987 4.7337544e-06 3.3207277e-06 2.0162472e-05
-1.4415299e-05 -4.8643837e-05 -0.000102661754 2.7637006e-05 2.5353283e-05 2.7264707e-05 -1.4069968e-05 -2.1869771e-05
-3.9914943e-05 9.171902e-05 9.028788e-05 4.99545e-05 -0.00016257557 -0.00018886932 -0.00020351502 4.6307825e-05
1.900286e-05 -2.649035e-05 -9.987848e-05 -6.906057e-05 -6.353105e-05 -4.6860583e-05 -3.112909e-05 -6.0700844e-05
1.4876467e-05 2.9819335e-05 3.924329e-05 5.4569496e-06 6.754649e-06 -9.4977295e-06 5.3952408e-05 4.054561e-05
4.0189905e-05 3.513837e-05 8.7422395e-06 -1.8594721e-05 3.1764124e-05 -2.1612115e-05 -8.475508e-05 -3.246817e-05
-8.545634e-05 -0.000106787294 -0.00019241015 -0.00036175916 -0.0005058 -2.760476e-05 -7.651543e-05 -7.759054e-05
-4.808928e-06 3.0793462e-06 1.517695e-05 -6.8658136e-07 8.7697e-06 1.7185335e-05 8.675888e-06 9.848683e-07
8.382215e-06 1.9245988e-06 1.0874169e-05 2.2243401e-05 1.4474763e-05 -6.7225224e-06 -3.8610415e-05 7.857434e-06
2.4663663e-05 2.990528e-05 1.4853167e-05 4.311285e-06 -6.5338136e-06 1.1188769e-05 -7.653618e-06 5.364771e-06
-3.4026946e-06 4.4424173e-06 4.617438e-06 1.35285145e-05 3.1404763e-06 1.6969463e-05 7.387651e-06 2.3124647e-05
1.2939899e-05 -4.794933e-06 -3.2820028e-06 1.9808382e-05 -9.671343e-06 6.1288893e-06 7.795133e-06 -4.917284e-06
2.459215e-06 -3.8398725e-06 -7.4545733e-06 -6.673543e-06 -3.0442216e-05 -6.882783e-06 -3.820037e-06 -5.969409e-07
9.593631e-06 1.2843367e-06 1.1171349e-05 -2.7217324e-05 -2.030032e-05 8.2687875e-06 4.1974654e-06 -3.9454182e-05
-4.1598352e-05 -3.01543e-05 -5.735475e-05 -8.4030056e-05 0.00010353379 0.00015332174 0.00019091713 2.036279e-07
-3.150537e-05 -4.334314e-05 5.1363073e-05 2.7996388e-05 -3.8249336e-06 1.8508084e-05 -1.6206566e-06 5.3519348e-06
-2.1557848e-05 -3.317495e-05 -3.909267e-05 -5.234289e-06 -4.635422e-05 -5.135219e-05 1.5776832e-05 2.7012455e-05
2.011767e-05 -2.1312697e-05 -1.31104225e-05 1.3783108e-05 3.1035825e-07 -2.4158028e-06 -3.036345e-06 5.8765236e-05
8.4612206e-05 8.320011e-05 0.0003044651 0.0003537272 0.0003669321 5.7430647e-05 6.9958405e-05 7.397661e-05
2.627555e-05 3.3634293e-05 3.4815715e-05 -1.2236179e-05 3.3027475e-06 9.862229e-06 3.0984345e-05 4.9336864e-05
4.8799815e-05 -9.806313e-05 -8.7375556e-05 -6.6423396e-05 -0.00016602543 -0.00014855884 -5.3310956e-05 -3.18198e-05
-3.9638904e-05 -3.389965e-05 -4.696868e-05 -1.0626419e-05 6.677993e-05 5.051699e-06 5.7561134e-05 0.00010371195
-1.1393764e-05 -7.5527023e-06 1.2002717e-05 -4.741109e-05 -5.6450008e-05 -3.289532e-05 -0.0002192082 -0.0002410222
-0.0001921384 2.9411844e-05 4.2780255e-05 2.7510765e-05 -3.3641659e-06 -2.534177e-05 -3.3669654e-05 -2.4132614e-05
-2.636921e-05 -2.963308e-05 -0.00026825143 -0.00028557424 -0.00016740797 -2.2557157e-05 -5.263954e-05 -4.53328e-05
-2.7566604e-05 -4.7001733e-05 -4.641573e-05 -3.3601387e-05 -4.645191e-05 -4.485632e-05 7.3048056e-07 -2.0843127e-05
-2.9865065e-05 -7.3620504e-06 -4.4104534e-05 -7.153238e-05 6.942789e-07 3.0342282e-05 4.4636843e-05 -2.9804927e-05
00000000: 0b89 4538 84d8 fb37 c1ae 7638 2978 2736
00000010: 23a5 6e37 3a82 7f38 e58d 5438 1d90 bf37
00000020: 3878 5bb7 aea9 c836 0af3 5a38 fb40 b138
00000030: c137 48b6 0d78 f837 8216 b937 abdc 8c38
00000040: 2897 7338 ab3e a138 a4b3 3138 896f 6b38
00000050: 9a66 3738 1386 1538 a7ba 2e38 ae42 5838
00000060: 6dce 56b7 6dce 0b37 23a9 a937 e01e 2438
00000070: 652c 0fb7 254d 8737 f389 e4b7 9391 f137
00000080: a030 ce38 a97e 3a36 73b4 2237 813f 4138
00000090: 4a25 fd37 ea47 f337 5851 ef37 aaf4 3a37
000000a0: 3d70 0638 cc33 9837 b7f3 a238 f023 2c39
000000b0: e1b7 4839 a4d6 9e36 abd9 5e36 9422 a937
000000c0: 3dd9 71b7 ec06 4cb8 1c4c d7b8 05d6 e737
000000d0: c3ad d437 83b6 e437 0d0e 6cb7 fa74 b7b7
000000e0: 586a 27b8 4659 c038 f058 bd38 3c86 5138
000000f0: 0c79 2ab9 390b 46b9 a666 55b9 a63a 4238
00000100: 5568 9f37 9837 deb7 da75 d1b8 9cd4 90b8
00000110: f93b 85b8 2b8c 44b8 9b90 02b8 0999 7eb8
00000120: f095 7937 8924 fa37 2999 2438 d71a b736
00000130: fea5 e236 7058 1fb7 f54a 6238 840f 2a38
00000140: 9591 2838 8a61 1338 a2ab 1237 dcfb 9bb7
00000150: 783a 0538 aa4b b5b7 89be b1b8 6f2e 08b8
00000160: 0637 b3b8 fef2 dfb8 b5c1 49b9 7eaa bdb9
00000170: aa97 04ba c590 e7b7 e976 a0b8 1bb8 a2b8
00000180: 615c a1b6 c4a6 4e36 81a0 7e37 834d 38b5
00000190: 9321 1337 3a29 9037 a88e 1137 d12f 8435
000001a0: 57a1 0c37 5b28 0136 3370 3637 5797 ba37
000001b0: a2d8 7237 0792 e1b6 9ef1 21b8 6cd3 0337
000001c0: d0e4 ce37 1add fa37 de31 7937 a8a9 9036
000001d0: 083d dbb6 66b7 3b37 0a68 00b7 0803 b436
000001e0: d959 64b6 1310 9536 7eef 9a36 87f8 6237
000001f0: f9c0 5236 a559 8e37 70e3 f736 cdfb c137
00000200: 7118 5937 29e4 a0b6 6140 5cb6 2d2a a637
00000210: 1a42 22b7 c2a6 cd36 d7c7 0237 26ff a4b6
00000220: fe08 2536 41d8 80b6 4c22 fab6 4ced dfb6
00000230: 295e ffb7 a8f2 e6b6 de2d 80b6 773d 20b5
00000240: 55f4 2037 7961 ac35 946c 3b37 c250 e4b7
00000250: 9b4a aab7 2cba 0a37 f4d7 8c36 9b7b 25b8
00000260: e479 2eb8 def3 fcb7 3290 70b8 4b39 b0b8
00000270: 4820 d938 fec4 2039 ed30 4839 d0a4 5a34
00000280: a224 04b8 58cb 35b8 ae6e 5738 c9d9 ea37
00000290: ee57 80b6 cf41 9b37 5685 d9b5 c594 b336
000002a0: 20d7 b4b7 5525 0bb8 6ff7 23b8 33a2 afb6
000002b0: 776c 42b8 ff62 57b8 7d58 8437 ce98 e237
000002c0: 5ec2 a837 abc8 b2b7 d6f4 5bb7 003e 6737
000002d0: 509f a634 2d1f 22b6 03c4 4bb6 b17a 7638
000002e0: d571 b138 b87b ae38 9da0 9f39 7674 b939
000002f0: cb60 c039 b0e1 7038 a2b6 9238 e423 9b38
00000300: 506a dc37 8c12 0d38 1707 1238 fd49 4db7
00000310: c5a4 5d36 f375 2537 30f5 0138 0eef 4e38
00000320: 67ae 4c38 3ea7 cdb8 653d b7b8 ca4c 8bb8
00000330: 1d17 2eb9 76c6 1bb9 349a 5fb8 4076 05b8
00000340: f341 26b8 792f 0eb8 3c00 45b8 1f48 32b7
00000350: 340c 8c38 c481 a936 cc6d 7138 ee7f d938
00000360: d827 3fb7 386d fdb6 475f 4937 45db 46b8
00000370: bcc4 6cb8 15f9 09b8 41db 65b9 e7ba 7cb9
00000380: c278 49b9 74b9 f637 f36e 3338 ebc6 e637
00000390: eec3 61b6 0995 d4b7 8438 0db8 6570 cab7
000003a0: 7333 ddb7 8e94 f8b7 19a4 8cb9 20b9 95b9
000003b0: 3c8a 2fb9 2039 bdb7 47c9 5cb8 b923 3eb8
000003c0: d53e e7b7 ba23 45b8 83ae 42b8 37ef 0cb8
000003d0: 5cd5 42b8 1b24 3cb8 3e16 4435 46d8 aeb7
000003e0: bd86 fab7 8807 f7b6 e2fc 38b8 a703 96b8
000003f0: 7c5e 3a35 8e87 fe37 7238 3b38 9805 fab7

exp_avg_sq f4 [16, 16, 3]
1.0435107e-07 1.1434377e-07 1.052496e-07 1.1850395e-08 1.1119874e-08 3.5443293e-08 6.4693225e-08 8.2288075e-08
7.6592414e-08 4.81424e-08 7.143891e-08 1.300661e-07 1.9052784e-07 1.9874932e-07 2.4705025e-07 6.175117e-08
7.730061e-08 1.0189575e-07 6.5375616e-08 8.338645e-08 9.365794e-08 4.3461487e-08 5.0448264e-08 5.051764e-08
6.570253e-09 6.1000365e-09 1.07108935e-08 5.1231265e-08 6.295457e-08 7.064809e-08 2.684105e-07 2.0476398e-07
2.9693103e-07 1.5978127e-08 2.5252765e-08 3.532933e-08 7.770919e-08 1.15270424e-07 1.3232611e-07 8.198355e-08
1.0209185e-07 1.0570941e-07 1.4781876e-06 1.6714358e-06 1.8478446e-06 6.1853385e-08 7.542383e-08 8.464427e-08
7.899834e-08 8.922084e-08 1.0820451e-07 1.06558495e-07 6.709374e-08 3.2202998e-08 4.8060112e-08 5.0385793e-08
4.972422e-08 1.3393442e-07 1.0933695e-07 9.013311e-08 6.921895e-07 6.2754003e-07 4.7286096e-07 1.8944428e-07
1.5123986e-07 1.0192303e-07 1.1464845e-07 6.8043974e-08 6.4203e-08 9.312345e-08 6.8647665e-08 5.6181655e-08
1.2043319e-08 1.6048741e-08 1.6881655e-08 1.10884294e-07 8.2611415e-08 5.6491857e-08 1.0670465e-06 7.551325e-07
4.1015124e-07 3.3205545e-08 2.4449234e-08 2.4196414e-08 4.7217465e-08 7.49583e-08 1.1967123e-07 1.0578821e-07
1.5128148e-07 1.8207756e-07 2.515671e-06 2.9316686e-06 3.22532e-06 9.547786e-08 1.10556634e-07 1.288164e-07
3.201549e-09 3.151347e-09 9.638161e-09 1.5774042e-09 2.3762345e-09 1.0884088e-08 8.912612e-09 5.0039604e-09
4.1858854e-09 4.6122106e-09 3.866327e-09 1.8887834e-08 2.4026521e-08 2.5450872e-08 7.038285e-08 8.792478e-09
1.4174469e-08 1.78258e-08 1.1885121e-08 3.9380065e-08 4.67935e-08 6.7802843e-09 1.1223018e-08 1.2754038e-08
2.4312325e-09 1.3890258e-09 2.4403184e-09 1.674406e-08 6.779426e-09 7.775776e-09 6.5889796e-09 1.4427667e-08
6.8316766e-08 3.992601e-09 7.752682e-09 8.506599e-09 7.3468227e-09 9.899853e-09 1.0950819e-08 2.7874366e-08
1.2105027e-08 7.4145e-09 2.9338062e-07 9.501713e-08 1.60279e-07 1.39882905e-08 3.9487986e-09 4.396524e-09
7.629069e-08 3.9301614e-08 1.8567158e-08 1.6090894e-08 1.0161953e-08 6.3299552e-09 2.6985981e-08 8.958912e-09
1.6398136e-08 6.886243e-08 6.574381e-08 1.0845382e-07 1.7380367e-07 2.898514e-07 7.0873745e-07 4.5504077e-08
2.8045744e-08 2.2934062e-08 1.315868e-07 1.9918187e-07 1.6103783e-07 1.6751292e-07 1.1216324e-07 3.5066336e-08
7.947015e-09 8.403963e-09 1.6082003e-08 2.4890365e-08 1.4672067e-08 2.9295228e-08 3.7492146e-07 7.341508e-08
2.0717744e-08 1.5101149e-08 1.7390063e-08 2.0756655e-08 8.5448484e-08 7.8567815e-08 4.4199645e-08 9.868542e-08
9.3420944e-08 1.2097257e-07 1.6450867e-06 1.7493265e-06 2.4525223e-06 7.553847e-08 5.9655484e-08 7.5197576e-08
2.889986e-08 5.1453046e-08 7.4411204e-08 8.223229e-08 1.0006575e-07 9.388672e-08 3.2997605e-08 2.5455249e-08
2.726041e-08 2.3170755e-07 1.8716061e-07 1.4965627e-07 5.7187145e-07 5.3682953e-07 4.7510179e-07 1.4405099e-07
1.7915731e-07 1.9310949e-07 1.3186225e-07 1.636536e-07 1.684296e-07 1.9369955e-07 2.0184397e-07 1.5223529e-07
1.2050817e-08 9.7643715e-09 7.722616e-09 1.289713e-07 1.454126e-07 1.3575315e-07 1.5809213e-06 1.3687371e-06
1.0856107e-06 2.5303853e-08 2.571106e-08 2.5318824e-08 1.1932087e-08 1.7222026e-08 4.048863e-08 4.6627385e-08
4.5722608e-08 6.862075e-08 1.7427183e-06 1.7081974e-06 1.9111133e-06 7.6653855e-08 8.034061e-08 8.1724636e-08
1.5655651e-08 3.253931e-08 7.2519626e-08 1.1159959e-08 3.1824463e-08 7.341371e-08 7.190303e-09 9.759559e-09
2.4397048e-08 2.8230344e-08 6.128841e-08 1.0477892e-07 1.2105833e-07 1.6530751e-07 2.1365773e-07 2.3827955e-08
00000000: 9b17 e033 278d f533 9405 e233 9796 4b32
00000010: b909 3f32 503a 1833 7aed 8a33 59b6 b033
00000020: 207b a433 21c5 4e33 f569 9933 4ca8 0b34
00000030: e593 4c34 cc67 5534 54a2 8434 119c 8433
00000040: 7600 a633 c8d1 da33 a064 8c33 3012 b333
00000050: ff20 c933 69aa 3a33 74ac 5833 bcf8 5833
00000060: 8ec0 e131 7d98 d131 0203 3832 5f09 5c33
00000070: a431 8733 33b7 9733 0f1a 9034 18dd 5b34
00000080: e469 9f34 4640 8932 6beb d832 02bd 1733
00000090: 14e1 a633 968a f733 8615 0e34 ef0e b033
000000a0: 973d db33 5d02 e333 2466 c635 1956 e035
000000b0: 7503 f835 42d4 8433 b0f8 a133 aec5 b533
000000c0: cca5 a933 ad99 bf33 0f5e e833 27d5 e433
000000d0: 2c15 9033 924f 0a33 a76a 4e33 c467 5833
000000e0: 5c90 5533 9dcf 0f34 a0cc ea33 348f c133
000000f0: e6ce 3935 3974 2835 84dd fd34 0c6a 4b34
00000100: 7f64 2234 c7e0 da33 a734 f633 921f 9233
00000110: f9df 8933 28fb c733 746b 9333 624c 7133
00000120: 14e7 4e32 8edb 8932 2703 9132 491f ee33
00000130: 1b68 b133 74a1 7233 7037 8f35 4fb4 4a35
00000140: c232 dc34 e29d 0e33 6f04 d232 7ad8 cf32
00000150: 27cc 4a33 c3f8 a033 fa7e 0034 af2d e333
00000160: f06f 2234 1981 4334 e6d2 2836 afbd 4436
00000170: 9372 5836 8209 cd33 276b ed33 c850 0a34
00000180: 3f02 5c31 158f 5831 1595 2532 facb d830
00000190: 294b 2331 bafc 3a32 151e 1932 4def ab31
000001a0: 70d3 8f31 6f79 9e31 92d8 8431 c93e a232
000001b0: e162 ce32 0f9f da32 6225 9733 ba0d 1732
000001c0: f983 7332 591f 9932 512f 4c32 d722 2933
000001d0: fff9 4833 03f8 e831 5bcf 4032 da1c 5b32
000001e0: b212 2731 00e8 be30 89b2 2731 94d4 8f32
000001f0: 76f0 e831 3996 0532 4765 e231 8ddd 7732
00000200: 8ab5 9233 4a2f 8931 a830 0532 6b24 1232
00000210: 566f fc31 0414 2a32 3622 3c32 6170 ef32
00000220: 79f6 4f32 a2c2 fe31 ed81 9d34 380c cc33
00000230: 2819 2c34 2751 7032 00ae 8731 3c10 9731
00000240: 40d5 a333 95cc 2833 9d7d 9f32 4038 8a32
00000250: be94 2e32 e07e d931 cdce e732 b6e9 1932
00000260: e2db 8c32 85e1 9333 0b2f 8d33 1ee7 e833
00000270: ca9e 3a34 e09c 9b34 1140 3e35 4370 4333
00000280: 3ee9 f032 8900 c532 4e4a 0d34 b2de 5534
00000290: bee9 2c34 9add 3334 65de f033 d89b 1633
000002a0: 5787 0832 0561 1032 b324 8a32 7ece d532
000002b0: 6f10 7c32 e3a4 fb32 d048 c934 5ea8 9d33
000002c0: cdf6 b132 c7b7 8132 2761 9532 5e4c b232
000002d0: cd7f b733 1db9 a833 06d6 3d33 e2ec d333
000002e0: b59e c833 b0e4 0134 c0cc dc35 67ca ea35
000002f0: 0396 2436 b737 a233 f31b 8033 4e7c a133
00000300: 773f f832 39fd 5c33 fecb 9f33 ae97 b033
00000310: bae3 d633 c59e c933 40b9 0d33 afa8 da32
00000320: 472a ea32 49cb 7834 51f6 4834 34b1 2034
00000330: b582 1935 a51a 1035 7e11 ff34 6fac 1a34
00000340: 635e 4034 8859 4f34 0596 0d34 c2b8 2f34
00000350: 93d9 3434 bafb 4f34 73ba 5834 1e76 2334
00000360: 0e08 4f32 29c0 2732 6dac 0432 5c7b 0a34
00000370: b622 1c34 8bc3 1134 0b30 d435 73b5 b735
00000380: 4db5 9135 c35b d932 38db dc32 af7c d932
00000390: e0fd 4c32 a3ef 9332 b8e5 2d33 5a43 4833
000003a0: 8a60 4433 a85c 9333 58e7 e935 3745 e535
000003b0: ad40 0036 e79c a433 b887 ac33 9880 af33
000003c0: 247b 8632 5ac1 0b33 16bc 9b33 05ba 3f32
000003d0: 5eaf 0833 9da7 9d33 930e f731 ffaa 2732
000003e0: ad91 d132 2f7f f232 a99d 8333 d202 e133
000003f0: 43fc 0134 627f 3134 ca69 6534 3aae cc32

exp_avg f4 [16]
-5.0889676e-06 -0.00010417768 1.4830539e-05 0.00023640602 7.1830014e-05 0.00015223134 -4.9285245e-05 -0.00018961074
-0.00020168525 -0.000113518836 0.00017995905 -9.1655944e-05 0.00020414176 -0.0001453273 0.00018495423 0.00021536752
00000000: e6c1 aab6 f779 dab8 aed0 7837 c2e3 7739
00000010: 72a3 9638 4aa0 1f39 a1b7 4eb8 3fd2 46b9
00000020: 797b 53b9 f610 eeb8 64b3 3c39 6937 c0b8
00000030: e30e 5639 0063 18b9 46f0 4139 47d4 6139

exp_avg_sq f4 [16]
4.2895033e-07 9.0249375e-07 3.942486e-07 2.365379e-06 8.344874e-07 3.3769751e-07 2.305714e-06 7.450325e-07
1.4677136e-06 2.6654283e-07 2.8409886e-06 1.004408e-06 1.7605008e-06 2.2162976e-06 4.2543738e-07 8.821135e-07
00000000: 7c4a e634 e642 7235 1da9 d334 e7bc 1e36
00000010: 8a01 6035 cb4c b534 ddbb 1a36 3efe 4735
00000020: 41fe c435 5e19 8f34 d0a7 3e36 32cf 8635
00000030: 594a ec35 b4bb 1436 ab67 e434 61ca 6c35
